checkpoint_actor.pth (torch_old, 169452 bytes, 6 tensors)

fc1.weight f4 [256, 33]
0.058915846 -0.06877053 0.0055362037 0.028618928 0.008710891 -0.12742338 -0.065940015 0.025650581
-0.033093516 -0.045382816 -0.03347327 0.046471898 -0.013893429 -0.08554984 0.13448076 0.026595013
0.0016204129 -0.044211492 -0.07141016 -0.029803159 -0.040736232 0.021578897 -0.019203804 0.06261583
0.04820662 -0.02918783 0.22207445 0.108234264 -0.038776707 0.031534612 -0.07508795 0.028442599
0.36400542 -0.20716032 -0.14916064 0.021497298 0.06881335 -0.04072207 0.017445166 0.039444454
0.0046732803 0.047792424 0.0183561 -0.08168098 0.063599996 0.04132436 0.0523859 0.011389613
-0.104738206 0.045814108 0.048044883 -0.094950564 -0.027853988 0.012784105 0.08902385 -0.0016737517
0.058458854 0.005316854 -0.0064922757 0.0039082346 -0.040213443 0.0877939 -0.058925427 0.05185778
0.051832296 -0.015573207 -0.090178594 0.07540545 -0.011729095 0.13279745 0.0812825 -0.024277909
-0.056843206 -0.055396296 0.04894613 -0.03110215 -0.10647859 0.11557919 0.13435659 0.07749407
0.11496927 -0.017004797 0.09190261 -0.068539076 -0.1165156 0.005800034 -0.011453913 -0.10685561
0.10312484 -0.06010092 0.018696716 0.10593899 0.029227257 -0.06444902 0.1684437 0.03277698
0.002165422 -0.035798535 0.03249822 -0.25534597 -0.072782725 0.096769 -0.013583315 -0.17699367
-0.13169673 0.046671763 0.080110855 -0.026654545 0.05161079 -0.16965367 0.09760871 0.014347679
-0.090962514 -0.08508715 -0.06390871 -0.031879976 -0.013407468 -0.040475618 -0.011537006 0.028840851
0.004354652 -0.018953463 0.006093791 -0.01498052 -0.007538435 0.06721395 -0.0654152 0.0316577
-0.05549769 0.0950057 -0.044141024 -0.038140804 -0.18351714 0.0052984413 0.022714779 -0.035911415
-0.073655725 -0.039813057 0.090900265 0.04625683 0.04095555 0.0869707 -0.121684365 0.015074507
0.047186285 -0.0037335325 0.16967574 -0.061632816 -0.072333105 0.122486465 0.0016852455 0.00880597
0.037161008 0.017527102 -0.007485122 -0.14389668 0.010397107 0.009734032 -0.10557344 -0.03439858
0.013099309 0.01118844 0.04604111 0.05973068 0.5055426 -0.09258671 0.11774683 0.14099815
-0.06812525 0.041634887 0.09429712 0.088310614 -0.11184946 -0.07689071 -0.016444065 0.040148113
-0.032865252 0.08915529 -0.117429905 -0.018340636 0.009902886 0.023782136 0.029628443 -0.05605206
0.047783326 -0.0063155545 0.045546837 -0.045146283 -0.16477993 -0.080608755 -0.06943991 -0.018235948
0.03829616 -0.06414435 0.023382619 -0.04747008 0.015905716 -0.4219138 -0.19105004 -0.16588378
0.06087441 8.286373e-05 -0.044264458 -0.07590311 -0.021558188 0.01584904 -0.14865996 -0.012899295
-0.06988573 0.000504957 -0.042003978 0.012755254 0.0057401475 -0.058261015 -0.061597556 -0.031299755
-0.04982004 -0.03011959 0.05526188 -0.03172911 -0.02071089 -0.053253826 -0.031874817 0.07696797
0.13310553 -0.023919543 0.09075433 0.0397287 -0.032795515 0.012115531 -0.075683504 -0.118617296
-0.041050766 0.14234787 0.064467065 0.09072659 -0.1292079 0.07946426 -0.022464925 -0.20032458
-0.09432925 0.039738104 -0.02913456 -0.020232895 0.008186507 0.015940672 -0.08815926 -0.01829108
-0.055085894 -0.004197854 -0.0062513216 0.12511574 -0.26860482 0.09705275 0.060540684 0.054555815
00000000: be51 713d 90d7 8cbd 0b69 b53b 3e72 ea3c
00000010: 20b8 0e3c 467b 02be 8f0b 87bd 2b21 d23c
00000020: 118d 07bd 55e3 39bd 441b 09bd 5159 3e3d
00000030: 44a1 63bc c134 afbd 53b5 093e c9dd d93c
00000040: 0964 d43a 1c17 35bd 7d3f 92bd c125 f4bc
00000050: 09db 26bd 3ac6 b03c 4c51 9dbc ba3c 803d
00000060: 4e74 453d 511b efbc 7c67 633e eda9 dd3d
00000070: 53d4 1ebd 702a 013d b6c7 99bd 7400 e93c
00000080: eb5e ba3e d621 54be 91bd 18be 1a1b b03c
00000090: 03ee 8c3d 2fcc 26bd 2ae9 8e3c 8290 213d
000000a0: 5122 993b fdc1 433d 885f 963c 5c48 a7bd
000000b0: b740 823d bb43 293d 9992 563d 809b 3a3c
000000c0: fc80 d6bd 93a7 3b3d b6ca 443d 7175 c2bd
000000d0: 0c2e e4bc 6c74 513c 2352 b63d ca61 dbba
000000e0: 8d72 6f3d 0139 ae3b 28bd d4bb a610 803b
000000f0: dab6 24bd 4acd b33d ca5b 71bd d368 543d
00000100: 1a4e 543d c426 7fbc 8eaf b8bd 2c6e 9a3d
00000110: 642b 40bc 0efc 073e 7077 a63d 77e2 c6bc
00000120: 6cd4 68bd 3ae7 62bd bd7b 483d f0c9 febc
00000130: 7211 dabd c8b4 ec3d c694 093e 36b5 9e3d
00000140: 0275 eb3d a54d 8bbc 7037 bc3d 375e 8cbd
00000150: bb9f eebd 360e be3b 31a9 3bbc 1dd7 dabd
00000160: 1e33 d33d 622c 76bd db29 993c 8bf6 d83d
00000170: 006e ef3c d9fd 83bd 817c 2c3e 2841 063d
00000180: c1e9 0d3b 7ca1 12bd db1c 053d b5bc 82be
00000190: 1c0f 95bd d32e c63d 8d8c 5ebc d43d 35be
000001a0: 82db 06be e42a 3f3d 2911 a43d a25a dabc
000001b0: d665 533d b1b9 2dbe 13e7 c73d 8712 6b3c
000001c0: 8e4a babd 2c42 aebd 92e2 82bd 9494 02bd
000001d0: ffaa 5bbc c3c9 25bd b605 3dbc a643 ec3c
000001e0: 78b1 8e3b 4b44 9bbc 6dae c73b db70 75bc
000001f0: fa04 f7bb 78a7 893d 68f8 85bd 81ab 013d
00000200: 8c51 63bd 5992 c23d 38cd 34bd 8839 1cbd
00000210: ebeb 3bbe 8c9e ad3b 5814 ba3c d917 13bd
00000220: d0d8 96bd 0413 23bd eb29 ba3d cd77 3d3d
00000230: 02c1 273d b21d b23d a735 f9bd 11fb 763c
00000240: 6846 413d 48ae 74bb 7abf 2d3e b172 7cbd
00000250: 6123 94bd 2fda fa3d 75e3 dc3a ea46 103c
00000260: 2436 183d ff94 8f3c c145 f5bb a759 13be
00000270: a158 2a3c 7d7b 1f3c e336 d8bd 87e5 0cbd
00000280: 7c9e 563c b84f 373c 9a95 3c3d 28a8 743d
00000290: 3d6b 013f 1a9e bdbd 4025 f13d d261 103e
000002a0: 4085 8bbd 5889 2a3d d91e c13d 32dc b43d
000002b0: 5411 e5bd e078 9dbd b4b5 86bc 5972 243d
000002c0: b79d 06bd 0c97 b63d 177f f0bd 1a3f 96bc
000002d0: b73f 223c c1d2 c23c 59b7 f23c d896 65bd
000002e0: 73b8 433d b6f2 cebb 528f 3a3d 4feb 38bd
000002f0: 12bc 28be 3416 a5bd 8336 8ebd 8e63 95bc
00000300: 6fdc 1c3d 1d5e 83bd e88c bf3c fd6f 42bd
00000310: b44c 823c 1605 d8be 9fa2 43be 70dd 29be
00000320: 7257 793d 20c7 ad38 a64e 35bd 1773 9bbd
00000330: cc9a b0bc d9d5 813c 513a 18be 9157 53bc
00000340: 4020 8fbd 175f 043a 5d0c 2cbd 6afb 503c
00000350: d917 bc3b 1aa3 6ebd b84d 7cbd 2c34 00bd
00000360: 1910 4cbd 5cbd f6bc 485a 623d 62f6 01bd
00000370: e2a9 a9bc af20 5abd 2b8f 02bd 62a1 9d3d
00000380: d14c 083e ebf2 c3bc 68dd b93d 90ba 223d
00000390: 9754 06bd 3880 463c f4ff 9abd a0ed f2bd
000003a0: d924 28bd a4c3 113e 4f07 843d ddce b93d
000003b0: 134f 04be 28be a23d 5d08 b8bc e321 4dbe
000003c0: b22f c1bd 6cc4 223d 9aab eebc 75bf a5bc
000003d0: b320 063c 0396 823c d88c b4bd 2dd7 95bc
000003e0: bfa1 61bd 278e 89bb e3d7 ccbb 571e 003e
000003f0: 9286 89be 98c3 c63d 82f9 773d eb75 5f3d

fc1.bias f4 [256]
0.011039401 0.22646782 0.010843254 0.20372954 -0.008374438 -0.2088322 -0.13910756 -0.10543216
0.071936294 0.15645646 0.0584914 -0.041819166 0.005443375 0.038141824 0.09358719 -0.071904026
-0.0059804646 -0.007740929 -0.042575072 0.027183304 0.10962025 0.042208694 0.13050412 -0.014620917
-0.07613164 -0.02397357 0.12358688 0.028077956 0.15134709 -0.0013834846 -0.026844187 -0.1686624
-0.14941624 0.00048116798 0.090173796 -0.07819947 0.22137678 0.14851499 -0.04585199 0.07045202
-0.09848729 0.060190998 0.14405766 -0.16631636 -0.079734676 -0.16213828 0.034104336 0.1453757
0.077559516 -0.05880397 -0.06524418 0.1683328 -0.022027578 0.08601077 -0.14894718 0.18981996
0.0055720285 -0.07495609 0.014556249 0.042684082 -0.0424953 0.1803654 -0.21833958 0.08153613
-0.089261375 -0.13165295 0.071777605 0.05454064 0.07374017 -0.016824283 0.10601559 0.05018535
-0.047206108 -0.04959414 0.11648532 0.18229626 0.021945402 0.14228624 0.18224 -0.037977774
0.15393938 0.11339888 0.039885458 0.1513893 0.22318362 -0.105375834 0.11864428 0.07660845
0.12037366 0.14728029 0.10350027 -0.08717444 0.10559229 -0.17070374 -0.18258332 0.10298338
0.16895922 -0.019046644 0.11989674 0.008316501 0.19631414 0.074705 0.10244691 -0.05045094
-0.11923409 0.1637498 0.04346775 0.13592714 -0.09217514 -0.08273184 0.20406297 0.21362454
-0.075730845 0.12875886 0.14364958 -0.07945073 0.13596873 -0.15468688 -0.00813256 -0.1872451
0.20471519 0.19215243 0.19904813 0.11370284 -0.0026832742 -0.026049599 0.054612197 0.08920821
-0.085192315 0.17052944 -0.01511221 -0.17295152 -0.07443809 0.24515687 0.101276524 -0.046935562
-0.1510233 0.15461114 -0.09728347 -0.06310488 0.09772594 -0.10288455 -0.20408857 -0.15155484
0.21823308 -0.050805703 0.0032492573 -0.08441036 0.15558603 0.12618369 -0.027197232 0.12550332
-0.116836615 0.041735 0.10298987 0.061829366 0.106601305 -0.06188205 0.015877748 -0.06948438
-0.023040293 -0.0331147 0.17191322 -0.09837497 0.027339887 0.06804597 0.1746769 -0.05998822
0.0017600273 0.13086759 0.029918127 0.15072618 0.14006603 0.13670594 0.03210803 0.20536017
0.15404327 -0.04917946 0.16371815 -0.17626156 -0.028168036 0.16475624 -0.054099146 -0.03544927
-0.060273666 0.04330775 0.008465135 0.03696346 -0.13296226 0.16846932 -0.025431989 0.14242436
0.14860052 0.12971118 0.080586 -0.09932386 -0.0015141024 -0.011638448 -0.07538046 -0.1363595
-0.0031420023 0.007828119 0.062143724 0.06835875 0.14525104 -0.03826408 0.08827173 0.07370471
-0.14805314 -0.022302918 0.04538276 0.0057417797 0.048470337 -0.10627269 -0.017391147 0.10255184
0.013676165 -0.009274345 0.12550361 0.09635452 0.07359158 -0.09425004 -0.0039478787 -0.15027381
0.07268854 -0.09874985 -0.062439956 0.08008274 -0.034576893 0.112130575 0.041800756 0.19678617
-0.12865904 -0.085521154 0.016479589 -0.1688757 0.06758794 0.062449355 -0.0129051255 -0.06751607
0.04685701 0.041878372 0.023061622 0.12839912 0.22328398 0.013897143 0.03869044 -0.02820738
0.10832484 -0.11223654 0.19975084 -0.056541428 0.15536414 0.059458848 0.12936355 0.16995597
00000000: 9bde 343c 2ee7 673e e7a7 313c 7a9e 503e
00000010: f034 09bc 1cd8 55be 3672 0ebe d1ec d7bd
00000020: 5653 933d 1f36 203e ae94 6f3d 934a 2bbd
00000030: 575e b23b 9a3a 1c3d a4aa bf3d 6b42 93bd
00000040: c6f7 c3bb 9ea7 fdbb 3363 2ebd 85af de3c
00000050: 9580 e03d 06e3 2c3d dfa2 053e 928c 6fbc
00000060: e8ea 9bbd 3864 c4bc 1e1b fd3d be03 e63c
00000070: bbfa 1a3e 0a56 b5ba 57e8 dbbc d6b5 2cbe
00000080: 9200 19be 4645 fc39 0aad b83d 0b27 a0bd
00000090: 98b0 623e 5014 183e 4ccf 3bbd 2649 903d
000000a0: b4b3 c9bd d68a 763d da83 133e d64e 2abe
000000b0: ef4b a3bd 9407 26be fdb0 0b3d 5edd 143e
000000c0: 86d7 9e3d 6fdc 70bd be9e 85bd 6f5f 2c3e
000000d0: 2e73 b4bc 6a26 b03d 9c85 18be 2a60 423e
000000e0: 9095 b63b 9482 99bd 557d 6e3c 81d5 2e3d
000000f0: 8d0f 2ebd b5b1 383e 6994 5fbe 6afc a63d
00000100: abce b6bd 08d0 06be 2300 933d 0266 5f3d
00000110: 1605 973d 14d3 89bc b41e d93d 278f 4d3d
00000120: 315b 41bd 3a23 4bbd db8f ee3d dfab 3a3e
00000130: d8c6 b33c 7cb3 113e 1f9d 3a3e 958e 1bbd
00000140: 49a2 1d3e ac3d e83d ef5e 233d cc05 1b3e
00000150: 3f8a 643e 49cf d7bd c6fb f23d e4e4 9c3d
00000160: 7786 f63d a5d0 163e f3f7 d33d 8388 b2bd
00000170: c540 d83d f6cc 2ebe 1ff7 3abe f3e8 d23d
00000180: a503 2d3e b507 9cbc 6c8c f53d ef41 083c
00000190: 9306 493e effe 983d b0cf d13d a5a5 4ebd
000001a0: 0131 f4bd 07ae 273e 3d0b 323d 7c30 0b3e
000001b0: 52c6 bcbd 506f a9bd e2f5 503e 64c0 5a3e
000001c0: c618 9bbd 5dd9 033e e018 133e 10b7 a2bd
000001d0: 633b 0b3e 3d66 1ebe 6e3e 05bc 2ebd 3fbe
000001e0: dca0 513e 9bc3 443e 46d3 4b3e 09dd e83d
000001f0: dfd9 2fbb f865 d5bc 0ab1 5f3d cbb2 b63d
00000200: 4f79 aebd 459f 2e3e 3499 77bc 341a 31be
00000210: ff72 98bd 670a 7b3e 116a cf3d 813f 40bd
00000220: daa5 1abe 6252 1e3e 8e3c c7bd 223d 81bd
00000230: 8a24 c83d 23b5 d2bd 98fc 50be 3131 1bbe
00000240: 7e78 5f3e a419 50bd 7ef1 543b 57df acbd
00000250: f251 1f3e 4c36 013e bbcc debc f183 003e
00000260: 0948 efbd 52f2 2a3d 5aec d23d ca40 7d3d
00000270: c951 da3d 0878 7dbd 0d12 823c d44d 8ebd
00000280: ffbe bcbc 48a3 07bd 050a 303e d178 c9bd
00000290: e6f7 df3c af5b 8b3d 80de 323e 35b6 75bd
000002a0: b7b0 e63a 2702 063e dc16 f53c f757 1a3e
000002b0: 786d 0f3e a4fc 0b3e b683 033d f049 523e
000002c0: 85bd 1d3e 6770 49bd bba5 273e e97d 34be
000002d0: a7c0 e6bc dcb5 283e 1197 5dbd 4133 11bd
000002e0: 85e1 76bd 7863 313d 59b1 0a3c ff66 173d
000002f0: 4227 08be 3983 2c3e bf56 d0bc b1d7 113e
00000300: bc2a 183e 02d3 043e 460a a53d 4f6a cbbd
00000310: d974 c6ba 30af 3ebc 1261 9abd d3a1 0bbe
00000320: 0dea 4dbb 8341 003c 6b8a 7e3d acff 8b3d
00000330: b0bc 143e ccba 1cbd cfc7 b43d 7ff2 963d
00000340: 3e9b 17be 9cb4 b6bc 46e3 393d 8a25 bc3b
00000350: d588 463d 7fa5 d9bd e177 8ebc b306 d23d
00000360: fe11 603c 6cf3 17bc 0584 003e 8555 c53d
00000370: 2fb7 963d 2a06 c1bd 355d 81bb 61e1 19be
00000380: bbdd 943d 5d3d cabd 0ac1 7fbd 6b02 a43d
00000390: 80a0 0dbd b7a4 e53d 4537 2b3d 5082 493e
000003a0: 32bf 03be b725 afbd 3400 873c c0ed 2cbe
000003b0: 8c6b 8a3d e5ca 7f3d 0570 53bc de45 8abd
000003c0: 23ed 3f3d a888 2b3d baeb bc3c 0f7b 033e
000003d0: 8ea4 643e d8b0 633c de79 1e3d 2a13 e7bc
000003e0: 6ad9 dd3d 45dc e5bd 7c8b 4c3e fc97 67bd
000003f0: c717 1f3e 1f8b 733d e177 043e f008 2e3e

fc2.weight f4 [128, 256]
-0.09996359 0.099308684 0.119623736 -0.05313161 0.12008734 0.115379736 0.07120198 0.10810027
0.12737332 0.10247379 0.082290806 -0.07512785 0.10209297 0.068093374 0.09540768 -0.0349962
0.10581791 0.14855452 -0.08499874 -0.007032612 0.114341676 0.11738026 0.03756059 0.051827956
0.04044051 0.0033369882 0.107078694 0.003685486 0.012460396 0.18157837 -0.083371215 0.03830739
-0.09494945 -0.008596614 -0.39328286 -0.19347426 0.11630085 -0.028895732 -0.15805931 -0.18245898
-0.050291 0.04758601 -0.3082627 0.036650103 -0.03216548 0.12434518 -0.16400711 -0.10694667
0.09605012 -0.11580063 0.060388047 -0.021232465 -0.09876352 0.20134161 -0.087519914 0.17858292
-0.101253666 -0.07082649 0.07389414 0.22772667 0.19621478 -0.0587476 -0.044348877 0.089351654
-0.04129073 -0.008555432 -0.11463983 0.0020822787 0.02103547 -0.099019624 0.062074564 0.12688974
0.05932104 -0.11615536 -0.25327712 0.09613235 0.05413502 -0.069081254 -0.06163177 -0.042407107
0.06819419 -0.15437892 0.022195121 0.05640804 -0.08282091 -0.08103918 -0.15150802 0.114836544
0.03356526 0.06419891 0.0056698513 -0.1142906 -0.19176306 0.0578543 0.05756091 0.08597443
0.077738814 0.11330213 -0.27664956 -0.030983975 0.05153272 0.13405518 0.1263784 -0.13309766
-0.047759995 0.0060619097 -0.14740564 0.07881044 -0.282346 -0.14824595 -0.12479431 0.10321682
0.13771534 0.07208455 -0.05162112 0.116592 0.020076696 0.17911395 -0.110247985 -0.2647832
-0.23890492 0.050860338 -0.016925858 0.053541824 0.20883773 0.03910767 0.068180025 0.08839224
-0.20146845 0.19544402 -0.17957367 -0.23181546 0.093525246 -0.07062658 -0.0507863 0.0067029083
0.11962227 0.02772998 0.11787261 -0.047502756 0.12592147 -0.0467038 -0.19231562 0.11286738
0.12984589 0.12062785 -0.0554348 0.11868022 -0.0972498 0.008564383 -0.026243027 0.1054196
-0.0944101 0.20557974 -0.047273096 0.041797433 0.065477215 -0.15354387 0.10188471 0.16969842
-0.08323598 -0.17044581 -0.091097444 -0.1375675 -0.09156747 -0.2125235 0.072265334 0.03437335
0.045995444 -0.13707739 0.05080921 -0.010219039 -0.17048061 -0.082943484 0.087680906 0.17807679
-0.05902423 -0.05453144 0.0006729555 0.20962317 -0.14647612 -0.008017221 0.18047825 0.07163226
0.07472645 0.049716666 0.063844405 0.15112205 -0.20260601 0.14929847 -0.081513844 -0.0533824
0.047243442 -0.049878947 -0.33510467 -0.20903789 0.04118155 0.045375258 0.05504557 0.032099213
-0.23347208 -0.07772446 0.10696965 -0.12866646 0.10028146 -0.10436551 -0.06533721 0.03208855
0.049422696 0.018415004 0.12969163 -0.0027936834 -0.041176923 -0.11378419 -0.12262995 0.08906557
0.10478947 -0.019935776 0.062475253 0.05880105 0.011406744 0.07186185 -0.2582081 -0.021702414
0.11383813 -0.024376858 -0.18093224 -0.01002805 0.07304608 -0.22664148 0.04882084 0.19533779
-0.030629195 0.05675042 0.014022935 0.25970486 0.09015468 0.034738533 -0.14862643 -0.032802876
-0.08093005 0.051279616 -0.46310374 -0.115483426 -0.1663156 -0.14975578 0.01786058 -0.10926134
-0.061689522 0.1569611 0.01705344 -0.2795585 0.028987631 0.19679555 0.0379955 -0.07852313
00000000: b6b9 ccbd 5a62 cb3d 4afd f43d 88a0 59bd
00000010: 5af0 f53d 364c ec3d 58d2 913d ad63 dd3d
00000020: 276e 023e c7dd d13d 1588 a83d a1dc 99bd
00000030: 1e16 d13d 8a74 8b3d 1a65 c33d 2d58 0fbd
00000040: 0fb7 d83d ad1e 183e d213 aebd d371 e6bb
00000050: f82b ea3d 1065 f03d 22d9 193d 8d49 543d
00000060: f3a4 253d 5fb1 5a3b 134c db3d 3288 713b
00000070: b026 4c3c aeef 393e 87be aabd 36e8 1c3d
00000080: db74 c2bd d0d8 0cbc 5f5c c9be 1e1e 46be
00000090: 242f ee3d beb6 ecbc 4dda 21be 87d6 3abe
000000a0: f0fd 4dbd 8ce9 423d 9cd4 9dbe 6b1e 163d
000000b0: f3bf 03bd b0a8 fe3d 7bf1 27be db06 dbbd
000000c0: edb5 c43d e128 edbd 7559 773d b5ef adbc
000000d0: 8744 cabd 7f2c 4e3e a43d b3bd 71de 363e
000000e0: 155e cfbd 7b0d 91bd d055 973d 2e31 693e
000000f0: 87ec 483e 53a1 70bd 2ba7 35bd 00fe b63d
00000100: 7820 29bd 152c 0cbc 4ac8 eabd d776 083b
00000110: 9452 ac3c cdca cabd e641 7e3d 62ef 013e
00000120: 9efa 723d dde2 edbd 8aad 81be 0ae1 c43d
00000130: afbc 5d3d 797a 8dbd 9871 7cbd 13b3 2dbd
00000140: 65a9 8b3d 8215 1ebe 8bd2 b53c 1e0c 673d
00000150: 029e a9bd dff7 a5bd eb24 1bbe 6c2f eb3d
00000160: ba7b 093d b87a 833d 29ca b93b 3111 eabd
00000170: 895d 44be a1f8 6c3d fdc4 6b3d 5d13 b03d
00000180: 8735 9f3d f20a e83d 03a5 8dbe 1bd2 fdbc
00000190: f913 533d c345 093e 5769 013e c14a 08be
000001a0: fc9f 43bd fca2 c63b 81f1 16be 5e67 a13d
000001b0: a88f 90be c9cd 17be 2994 ffbd 5763 d33d
000001c0: 4005 0d3e 11a1 933d ab70 53bd c9c7 ee3d
000001d0: e277 a43c a669 373e b2c9 e1bd aa91 87be
000001e0: 7ea3 74be ee52 503d 19a8 8abc ac4e 5b3d
000001f0: 8fd9 553e 5d2f 203d f8a1 8b3d fe06 b53d
00000200: bf4d 4ebe 7a22 483e 29e2 37be 0861 6dbe
00000210: 2a8a bf3d aba4 90bd 4c05 50bd 12a4 db3b
00000220: 85fc f43d fc29 e33c 3267 f13d 4092 42bd
00000230: 8ff1 003e 7c4c 3fbd 63ee 44be 0327 e73d
00000240: 52f6 043e bc0b f73d 9a0f 63bd 9d0e f33d
00000250: e72a c7bd a051 0c3c 9efb d6bc 3be6 d73d
00000260: 155a c1bd 7f83 523e 6fa1 41bd c933 2b3d
00000270: eb18 863d 9b3a 1dbe eea8 d03d 6cc5 2d3e
00000280: a077 aabd 5989 2ebe 4c91 babd 7fde 0cbe
00000290: ba87 bbbd c39f 59be d9ff 933d 12cb 0c3d
000002a0: b865 3c3d 045e 0cbe 511d 503d c26d 27bc
000002b0: 7892 2ebe 46de a9bd 0c92 b33d c359 363e
000002c0: 64c3 71bd 5c5c 5fbd 4769 303a 75a7 563e
000002d0: d6fd 15be a95a 03bc 4acf 383e efb3 923d
000002e0: 2e0a 993d b4a3 4b3d dbc0 823d bdbf 1a3e
000002f0: f377 4fbe b3e1 183e bbf0 a6bd 81a7 5abd
00000300: 5782 413d de4d 4cbd d792 abbe 070e 56be
00000310: fcad 283d 68db 393d 7777 613d 777a 033d
00000320: 4e13 6fbe 002e 9fbd e712 db3d 24c1 03be
00000330: 5e60 cd3d 96bd d5bd 84cf 85bd 496f 033d
00000340: 746f 4a3d 10db 963c e2cd 043e 3b16 37bb
00000350: 22a9 28bd af07 e9bd 6925 fbbd 0268 b63d
00000360: dd9b d63d 5a50 a3bc 0de6 7f3d 5fd9 703d
00000370: 5ae3 3a3c 4e2c 933d da33 84be 43c9 b1bc
00000380: f723 e93d fab1 c7bc 4d46 39be b14c 24bc
00000390: 2f99 953d b414 68be 5cf8 473d a106 483e
000003a0: 14ea fabc 2173 683d 74c0 653c 09f8 843e
000003b0: 04a3 b83d fe49 0e3d 8731 18be 4f5c 06bd
000003c0: a7be a5bd 930a 523d ef1b edbe 9382 ecbd
000003d0: a34e 2abe 9459 19be 5a50 923c 69c4 dfbd
000003e0: 27ae 7cbd 69ba 203e a8b3 8b3c 4b22 8fbe
000003f0: 7877 ed3c c684 493e 2ba1 1b3d bcd0 a0bd

fc2.bias f4 [128]
0.08240872 -0.0039116726 -0.0071818563 -0.021284688 -0.03739057 0.01196041 -0.0049104234 -0.0025109763
-0.04147132 -0.059872616 0.0759748 -0.046276942 -0.038180217 -0.0049851025 -0.026444081 0.06131257
0.0051886924 0.11918132 -0.031545483 -0.050058253 -0.026560247 -0.038712062 -0.082551695 0.010814997
-0.027290516 0.058768764 -0.07341608 0.039887577 -0.015629152 -0.06191433 -0.07665721 -0.02218289
-0.008467208 -0.012787666 -0.024376307 0.0003540233 -0.00021838602 -0.028812412 -0.039165594 -0.16890498
0.10939906 -0.039906986 0.006389376 -0.05013675 -0.054654673 0.05649167 0.021172542 -0.013091639
-0.017117625 0.0066522053 0.0015727057 -0.0129988175 -0.017296981 -0.009430944 -0.0032058049 0.065916404
0.027909609 -0.00096639164 0.067969814 -0.042709373 0.015859563 0.06460028 0.013515864 0.08119163
-0.08725515 0.035500027 -0.01624977 0.009343293 0.01136906 0.031534508 -0.051850006 0.05074939
0.021570088 -0.0061140014 0.014921731 0.009520321 -0.095366344 0.042435236 0.023662716 0.070676014
-0.085021056 0.05374081 0.017574597 0.037306014 -0.03191763 -0.057568487 -0.016047264 0.071220785
0.03111578 -0.0006927851 0.080716714 0.039493594 0.022613257 0.033994548 -0.01765831 0.05635351
-0.04345337 0.014196983 0.03360659 -0.0034604643 -0.03905089 0.0419257 0.033520892 -0.043667614
0.013979117 0.03140084 -0.020755632 0.07816289 0.08931584 -0.02250401 -0.02706044 -0.068173
0.08085198 -0.041049123 0.08371948 0.025284478 0.082938604 0.04445827 0.04236655 0.044337224
-0.031166269 0.044108428 -0.021642309 0.05766336 -0.03707909 -0.031667165 -0.0024337869 -0.012498985
00000000: e7c5 a83d 7d2d 80bb c755 ebbb 3a5d aebc
00000010: db26 19bd 98f5 433c 9ee7 a0bb 318f 24bb
00000020: d5dd 29bd fd3c 75bd ad98 9b3d e48c 3dbd
00000030: dc62 1cbd 125a a3bb 42a1 d8bc e422 7b3d
00000040: e805 aa3b 5615 f43d d635 01bd e209 4dbd
00000050: e094 d9bc 8a90 1ebd dd10 a9bd 6331 313c
00000060: 5c90 dfbc 84b7 703d 2b5b 96bd 2861 233d
00000070: b508 80bc e199 7dbd 75fe 9cbd e4b8 b5bc
00000080: 0bba 0abc 5c83 51bc d2b0 c7bc 349c b939
00000090: 8dfe 64b9 0208 ecbc 1a6c 20bd 6df5 2cbe
000000a0: 9d0c e03d 8275 23bd f85d d13b 315c 4dbd
000000b0: 94dd 5fbd cf63 673d 0a72 ad3c 507e 56bc
000000c0: 433a 8cbc befa d93b 3f23 ce3a fef8 54bc
000000d0: 66b2 8dbc 3f84 1abc 7b18 52bb 2eff 863d
000000e0: b1a2 e43c 7255 7dba c233 8b3d 06f0 2ebd
000000f0: eaeb 813c 274d 843d a471 5d3c cc47 a63d
00000100: d4b2 b2bd 7a68 113d 3d1e 85bc 9c14 193c
00000110: 4b45 3a3c 542a 013d ac60 54bd 98de 4f3d
00000120: c1b3 b03c f657 c8bb 477a 743c 1ffb 1b3c
00000130: 6e4f c3bd 92d0 2d3d 50d8 c13c 96be 903d
00000140: 851f aebd 531f 5c3d 9af8 8f3c 31ce 183d
00000150: 10bc 02bd efcc 6bbd 8d75 83bc 34dc 913d
00000160: 85e6 fe3c 059c 35ba ce4e a53d 09c4 213d
00000170: 703f b93c de3d 0b3d 29a8 90bc f0d2 663d
00000180: 29fc 31bd 769a 683c 10a7 093d f5c8 62bb
00000190: d3f3 1fbd 48ba 2b3d 344d 093d d0dc 32bd
000001a0: ab08 653c 2b9e 003d b707 aabc de13 a03d
000001b0: 39eb b63d 545a b8bc dbad ddbc 499e 8bbd
000001c0: b995 a53d 2023 28bd 1e75 ab3d 6521 cf3c
000001d0: b7db a93d e019 363d 8c88 2d3d f39a 353d
000001e0: 6750 ffbc 0aab 343d 364b b1bc 6a30 6c3d
000001f0: 3ee0 17bd 6eb5 01bd 2b80 1fbb 8bc8 4cbc

fc3.weight f4 [4, 128]
0.23535696 -0.23016274 -0.09019702 0.06515198 0.05216594 -0.14260334 -0.07018994 0.09093741
0.48668775 -0.2794786 0.06796576 0.24791919 0.36026403 0.07353676 -0.10755078 -0.39850143
-0.47519088 0.57275623 -0.05207835 -0.20205218 -0.16870026 0.058904726 0.16342986 -0.07925903
-0.037607603 0.115302615 0.046796985 -0.20838726 -0.29416016 -0.30167052 0.48660678 -0.09827398
-0.11248914 -0.04845301 0.3074193 0.025493078 -0.08224914 -0.28884453 -0.5676028 -0.07097689
0.053995606 -0.4330602 -0.09608416 0.1329967 0.4339354 -0.0085500125 0.2626797 -0.1627666
0.20986354 -0.12589543 -0.15738225 -0.52891684 -0.21288052 0.045798548 -0.07246002 0.114648074
0.17416613 -0.087928645 -0.016723398 0.07967098 0.25383583 -0.1827183 0.41424778 0.113709345
-0.22019713 -0.04444534 0.18384784 -0.21958774 0.26371744 0.11448691 -0.31387684 0.11705122
0.044088643 -0.15861428 -0.097508 -0.07439727 -0.17384906 -0.04157741 0.10041888 -0.11921305
0.16707252 0.23202765 -0.17423098 -0.0156142255 -0.32527623 -0.08849281 -0.05136159 -0.099880494
-0.2495859 -0.07791748 0.085387416 -0.20014617 -0.3291801 -0.13456272 0.51683694 -0.30506963
0.20340125 -0.047281474 0.1912824 0.09125738 -0.004558848 -0.281471 0.095563516 -0.3352575
-0.056683984 -0.1270898 0.04339938 0.2867602 0.10033959 0.123129405 -0.08974434 0.15049984
-0.27277687 -0.48214912 -0.08191887 0.08168931 0.38837615 -0.0267459 0.03255638 0.2101768
-0.1065304 0.17516614 -0.16480343 -0.19086906 -0.123194 -0.13843676 0.19211593 0.15733148
-0.2172062 0.09278342 -0.007652459 -0.073195376 -0.092172526 -0.16541423 -0.47521576 0.21666147
-0.7145785 -0.79125077 -0.20600311 0.54579294 -0.3558833 -0.02996892 0.30944988 0.04453388
0.10262757 0.2403223 0.2716196 -0.10140369 0.6510456 0.45329568 0.2733541 0.21416792
0.06957338 -0.11272868 0.6382975 -0.15179218 0.18280898 -0.40193644 -0.11093541 -0.18022475
-0.008520862 0.18390001 -0.013380724 0.4139309 -0.014120495 0.124148145 0.0012271787 0.372084
-0.1412527 0.4405229 0.09522932 0.12614785 0.06948362 -0.45941815 -0.019109646 -0.03708604
-0.2262036 -0.008471154 0.037649304 0.48773465 -0.060170032 -0.08069467 -0.044177216 -0.3054755
-0.056266338 0.16977349 0.25697374 0.54432684 -0.3061876 -0.14291058 0.31764674 -0.0983711
0.26139227 0.37040877 0.06883507 -0.621477 -0.06263211 -0.015777355 -0.07595115 0.45237398
0.39636043 -0.0033625977 0.32609874 -0.18056904 -0.27257714 0.38089252 -0.15044172 -0.03338413
0.42821652 0.08891681 -0.92952967 0.13035883 -0.21092212 0.1635582 0.15639979 -0.18685259
0.21835929 0.4555668 -0.1035612 0.12478943 -0.11730956 -0.31472 -0.13734175 -0.717624
-0.39428493 -0.31685564 0.21130414 -0.3157675 -0.06823199 0.044095974 -0.17552088 0.79605335
0.2526688 0.020022567 -0.12688325 -0.23026429 -0.13787301 -0.20761062 0.1999024 0.036789622
-0.029623711 0.08783046 -0.041805666 -0.31583503 0.12909168 -0.28167784 1.0226078 0.77375144
-0.07003224 0.18499045 -0.0066178082 -0.01857405 -0.13893859 0.03541735 -0.07190219 -0.04872058
00000000: 6a01 713e c8af 6bbe 37b9 b8bd 676e 853d
00000010: f4ab 553d 9c06 12be bebf 8fbd 653d ba3d
00000020: 232f f93e d217 8fbe a231 8b3d 87de 7d3e
00000030: 8774 b83e 719a 963d 9543 dcbd 6108 ccbe
00000040: 384c f3be 27a0 123f 1c50 55bd c4e6 4ebe
00000050: c3bf 2cbe 1546 713d 285a 273e 8f52 a2bd
00000060: 6e0a 1abd c723 ec3d 32ae 3f3d 7863 55be
00000070: 299c 96be 8f74 9abe 8624 f93e de43 c9bd
00000080: b560 e6bd aa76 46bd 1066 9d3e dcd6 d03c
00000090: 3d72 a8bd 6ee3 93be 6b4e 11bf 555c 91bd
000000a0: 7f2a 5d3d 11ba ddbe c6c7 c4bd 4930 083e
000000b0: c82c de3e 5a15 0cbc f47d 863e 4aac 26be
000000c0: 78e6 563e bbea 00be d028 21be 1867 07bf
000000d0: 5afd 59be 4297 3b3d eb65 94bd 9ccc ea3d
000000e0: 9b58 323e ef13 b4bd 82ff 88bc 8a2a a33d
000000f0: c5f6 813e 821a 3bbe 4918 d43e 72e0 e83d
00000100: 5b7b 61be 510c 36bd 9c42 3c3e 9cdb 60be
00000110: f905 873e 1d78 ea3d 77b4 a0be 8db8 ef3d
00000120: 4b96 343d c86b 22be 46b2 c7bd 995d 98bd
00000130: 7d05 32be 134d 2abd 6aa8 cd3d f925 f4bd
00000140: 0f15 2b3e a898 6d3e 9b69 32be cfd2 7fbc
00000150: 9b8a a6be b83b b5bd 8860 52bd 258e ccbd
00000160: 7293 7fbe 3393 9fbd 99df ae3d 1ef3 4cbe
00000170: 4b8a a8be cfca 09be 6d4f 043f 1632 9cbe
00000180: 6b48 503e 38aa 41bd 89df 433e 26e5 ba3d
00000190: 6462 95bb f81c 90be ceb6 c33d dfa6 abbe
000001a0: 772d 68bd d423 02be 8cc3 313d 3cd2 923e
000001b0: d87e cd3d 452b fc3d e1cb b7bd a11c 1a3e
000001c0: 69a9 8bbe 40dc f6be 15c5 a7bd ba4c a73d
000001d0: 3dd9 c63e 381a dbbc d759 053d 9638 573e
000001e0: 9c2c dabd c15e 333e 3bc2 28be 2e73 43be
000001f0: 234d fcbd 5ec2 0dbe 0aba 443e 811b 213e
00000200: 4d6b 5ebe 3c05 be3d 7bc1 fabb 75e7 95bd
00000210: f3c4 bcbd 5962 29be 7b4f f3be 81dc 5d3e
00000220: 9eee 36bf 698f 4abf 7bf2 52be 16b9 0b3f
00000230: 5636 b6be 6181 f5bc 3770 9e3e 2869 363d
00000240: 672e d23d 0d17 763e b911 8b3e bdac cfbd
00000250: edaa 263f 5f16 e83e 12f5 8b3e d64e 5b3e
00000260: 7d7c 8e3d 4bde e6bd 7767 233f 696f 1bbe
00000270: 4732 3b3e 9dca cdbe 1b32 e3bd d68c 38be
00000280: 169b 0bbc 4950 3c3e d33a 5bbc c0ee d33e
00000290: a659 67bc 6241 fe3d 49d9 a03a cb81 be3e
000002a0: 8ca4 10be 388c e13e 9707 c33d e72c 013e
000002b0: 6e4d 8e3d db38 ebbe d58b 9cbc 88e7 17bd
000002c0: eba1 67be 98ca 0abc 2836 1a3d 5bb8 f93e
000002d0: da74 76bd 3f43 a5bd 2bf3 34bd 4967 9cbe
000002e0: 8877 66bd 1ad9 2d3e 1092 833e 0159 0b3f
000002f0: 9fc4 9cbe 2757 12be 98a2 a23e ca76 c9bd
00000300: 35d5 853e 38a6 bd3e 67f9 8c3d 1e19 1fbf
00000310: 4445 80bd 833f 81bc 478c 9bbd 909d e73e
00000320: c1ef ca3e 075f 5cbb 6af6 a63e 17e7 38be
00000330: 3b8f 8bbe 5804 c33e 650d 1abe ccbd 08bd
00000340: 323f db3e 041a b63d a8f5 6dbf c97c 053e
00000350: f8fb 57be cd7b 273e 4427 203e 4956 3fbe
00000360: 9499 5f3e 0d40 e93e e517 d4bd 9a91 ff3d
00000370: ff3f f0bd fb22 a1be 51a3 0cbe 35b6 37bf
00000380: b7df c9be e73a a2be 1d60 583e 47ac a1be
00000390: 37bd 8bbd fb9d 343d bfbb 33be 27ca 4b3f
000003a0: ce5d 813e 5e06 a43c afed 01be 67ca 6bbe
000003b0: 952e 0dbe e197 54be 37b3 4c3e b7b0 163d
000003c0: 6dad f2bc 75e0 b33d 6b3c 2bbd 21b5 a1be
000003d0: 9c30 043e 1438 90be d0e4 823f 9314 463f
000003e0: 106d 8fbd 236e 3d3e 33da d8bb 9b28 98bc
000003f0: eb45 0ebe c811 113d 7541 93bd 3b8f 47bd

fc3.bias f4 [4]
0.041969623 -0.11097667 0.024570914 -0.03550038
00000000: 57e8 2b3d bd47 e3bd f148 c93c d968 11bd
