checkpoint_critic.pth (torch_old, 169956 bytes, 5 tensors)

fcs1.weight f4 [256, 33]
-0.028889997 -0.018602036 0.032205515 -0.036643524 -0.027125917 -0.075369254 0.01991617 -0.027370183
-0.035136662 0.017918278 -0.011043329 -0.0016591246 -0.041048046 0.00228021 0.008947149 -0.017985933
-0.007056638 -0.038287144 -0.09294876 0.121065274 0.016706921 0.016834008 -0.013824972 -0.001634615
-0.015999649 0.03263467 -0.054587953 -0.041006405 -0.008779608 -0.050394535 -0.020205034 0.040429823
-0.19979717 -0.008692054 -0.11826167 -0.029724758 0.007467379 0.032180298 0.048377696 0.03614578
-0.02047139 0.07448131 -0.04983597 0.013426364 0.026722236 0.028584944 0.0611599 0.05744078
0.044884108 0.07430041 0.03723358 0.044644095 -0.009957559 0.010288867 -0.03231173 0.01986988
0.00027370415 0.008883692 -0.011113846 -0.016299574 -0.094475396 0.034410946 0.020014852 0.08042134
0.0048096925 -0.07997245 -0.045754805 0.0034559737 0.027271075 0.031473387 -0.02353421 -0.033614017
-0.043347593 -0.033542957 -0.0045540133 0.06633898 -0.0014972338 0.008272355 0.044032946 -0.020185592
0.05892417 -0.060457617 0.04383795 -0.018212976 0.0041866256 -0.0057624206 -0.018484546 0.0025994391
-0.030131163 -0.01055311 -0.00499027 -0.04022027 0.044301145 0.016487278 -0.06676632 -0.0031918436
0.050674114 -0.054345243 0.0909006 0.037263878 -0.0317871 0.0862173 0.062148646 -0.031092135
-0.015042978 0.043568753 -0.0009743725 -0.06362437 0.006418619 0.02292058 0.048205085 -0.004805318
-0.07149625 0.020558504 -0.06594668 -0.026567262 -0.030843722 -0.026578808 -0.024635375 0.00051155814
-0.011796912 -0.011515879 -0.0012308017 0.0014934351 0.001920976 0.102560565 0.014466795 -0.021171914
-0.02473484 0.08841223 -0.010972619 0.33579648 0.10223229 0.022974478 0.052578144 -0.06236684
-0.0075762444 0.0506965 0.11552504 0.041231338 -0.04653771 0.026986849 -0.023990454 0.021657098
-0.020315353 0.03435297 -0.023186537 -0.024093876 0.06140238 -0.07661588 -0.02504693 0.019102637
0.0065484126 0.06270186 0.026160713 0.063184716 0.026117802 0.07079084 0.0020622506 0.11118592
-0.02356643 0.017925903 -0.118712865 0.016678609 0.22195044 -0.03236366 0.07202944 -0.014791555
0.0064840876 0.028492935 0.0039370507 -0.09200385 0.013952437 -0.09211304 0.009897437 -0.008288696
0.024662456 -0.0017422981 0.09748922 -0.05181753 -0.018120768 0.0065112594 -0.020533098 -0.04286941
-0.053187825 0.014673827 -0.009220161 -0.0016771741 0.0010990172 -0.07055454 -0.024982458 -0.082390174
0.064633645 0.050199 0.04787697 -0.060616773 0.009369083 -0.32851672 -0.0281126 -0.001993421
-0.04781291 -0.03924453 0.0020804992 0.026011292 0.026669476 -0.03349371 -0.02255785 -0.05159043
0.0013113843 -0.031847425 -0.005724726 0.103161186 -0.1158109 0.030584875 -0.0139093725 -0.022731839
-0.06302685 0.010645427 -0.003225135 -0.020828083 0.047050193 0.0094504785 -0.031269595 -0.020269582
-0.06144772 0.09366725 -0.023049083 -0.04773082 -0.119755544 0.0014542788 -0.10299493 0.006109585
-0.06532579 0.025315229 -0.045593746 -0.07701197 -0.075434014 0.104969665 0.06518629 0.06477751
0.13071974 0.010830672 -0.014151022 -0.014434413 -0.060926702 0.005675385 -0.049551282 -0.032832608
-0.022398047 0.023429269 0.05434604 0.028134242 -0.006605345 0.046353105 -0.015625335 -0.021302925
00000000: b7aa ecbc 4c63 98bc eee9 033d 8517 16bd
00000010: 2c37 debc 325b 9abd 3c27 a33c 6f37 e0bc
00000020: 76eb 0fbd 5ac9 923c 14ef 34bc fc76 d9ba
00000030: ff21 28bd 936f 153b 1097 123c 3c57 93bc
00000040: 5f3b e7bb fbd2 1cbd eb5b bebd 12f1 f73d
00000050: f4dc 883c 79e7 893c 2382 62bc 9440 d6ba
00000060: b211 83bc efab 053d 9e97 5fbd 55f6 27bd
00000070: 58d8 0fbc 806a 4ebd 0785 a5bc be99 253d
00000080: a197 4cbe 1e69 0ebc 2d33 f2bd 5681 f3bc
00000090: eab0 f43b 7dcf 033d b127 463d 990d 143d
000000a0: 9eb3 a7bc a889 983d cd20 4cbd 41fa 5b3c
000000b0: 97e8 da3c f92a ea3c ce82 7a3d 0647 6b3d
000000c0: 66d8 373d d02a 983d 3d82 183d badc 363d
000000d0: 0825 23bc a392 283c 4e59 04bd 29c6 a23c
000000e0: f37f 8f39 e88c 113c d916 36bc af86 85bc
000000f0: 517c c1bd 7ef2 0c3d 30f6 a33c f2b3 a43d
00000100: a09a 9d3b 99c8 a3bd 6469 3bbd 9e7d 623b
00000110: 9767 df3c 3dea 003d d1ca c0bc daae 09bd
00000120: 3f8d 31bd 5764 09bd d539 95bb bbdc 873d
00000130: d43e c4ba c688 073c e45b 343d 415c a5bc
00000140: 785a 713d 68a2 77bd 6c8f 333d 6133 95bc
00000150: f62f 893b b0d2 bcbb e76c 97bc 5a5b 2a3b
00000160: a1d5 f6bc f4e6 2cbc 6b85 a3bb 03be 24bd
00000170: 1e75 353d 5410 873c c8bc 88bd 402e 51bb
00000180: a98f 4f3d 1e99 5ebd 182a ba3d 02a2 183d
00000190: 3133 02bd b292 b03d 948f 7e3d efb4 febc
000001a0: d376 76bc 2675 323d 086d 7fba 7e4d 82bd
000001b0: 4753 d23b f1c3 bb3c b272 453d ee75 9dbb
000001c0: a06c 92bd 4f6a a83c 0e0f 87bd 96a3 d9bc
000001d0: f9ab fcbc cdbb d9bc 20d0 c9bc 161a 063a
000001e0: d647 41bc 19ad 3cbc da52 a1ba 5ebf c33a
000001f0: 42c9 fb3a 460b d23d 2306 6d3c b970 adbc
00000200: b8a0 cabc 7911 b53d 80c6 33bc 84ed ab3e
00000210: 2a5f d13d f934 bc3c 2e5c 573d 5f74 7fbd
00000220: 2542 f8bb 22a7 4f3d 6498 ec3d 31e2 283d
00000230: 539e 3ebd 8613 dd3c a187 c4bc 3a6a b13c
00000240: 626c a6bc b3b5 0c3d b1f1 bdbc 8560 c5bc
00000250: 1081 7b3d c9e8 9cbd 382f cdbc 227d 9c3c
00000260: 1194 d63b d569 803d fe4e d63c fd66 813d
00000270: 00f5 d53c cafa 903d d326 073b 72b5 e33d
00000280: 630e c1bc 58d9 923c bb1f f3bd 94a1 883c
00000290: fa46 633e c28f 04bd 2c84 933d 4758 72bc
000002a0: 7878 d43b 046a e93c 6002 813b 846c bcbd
000002b0: c398 643c c3a5 bcbd dc28 223c 50cd 07bc
000002c0: eb08 ca3c d35d e4ba 6ea8 c73d 9e3e 54bd
000002d0: 0172 94bc 675c d53b 0735 a8bc d697 2fbd
000002e0: 7adb 59bd 7e6a 703c 2810 17bc a0d4 dbba
000002f0: e60c 903a e67e 90bd 03a8 ccbc 2ebc a8bd
00000300: a55e 843d 779d 4d3d a41a 443d 4b49 78bd
00000310: c880 193c 5833 a8be 654c e6bc 0ea4 02bb
00000320: 78d7 43bd dfbe 20bd fc58 083b a215 d53c
00000330: f279 da3c b330 09bd 3ecb b8bc 7d50 53bd
00000340: c1e2 ab3a 7272 02bd 7b96 bbbb 2c46 d33d
00000350: 442e edbd 228d fa3c 23e4 63bc 1f38 babc
00000360: 3914 81bd 286a 2e3c c95c 53bb a89f aabc
00000370: b4b7 403d 2ed6 1a3c 8c14 00bd 650c a6bc
00000380: 9bb0 7bbd 9dd4 bf3d 6ed1 bcbc 6481 43bd
00000390: 6542 f5bd 809d be3a 02ef d2bd ea32 c83b
000003a0: 87c9 85bd e261 cf3c 82c0 3abd 74b8 9dbd
000003b0: 267d 9abd 56fa d63d 6480 853d 12aa 843d
000003c0: 65db 053e 2273 313c b0d9 67bc 517e 6cbc
000003d0: 478e 79bd 94f8 b93b 49f6 4abd 7c7b 06bd
000003e0: 1c7c b7bc bdee bf3c f499 5e3d c879 e63c
000003f0: a671 d8bb c1dc 3d3d b400 80bc 7983 aebc

fcs1.bias f4 [256]
0.07610832 0.19863085 -0.021379005 0.18354358 -0.084990054 -0.20613816 -0.22372733 -0.094255395
0.05498838 0.135027 -0.058592025 -0.07442724 0.1266826 -0.10358386 0.021595197 -0.034946673
-0.07225726 -0.2113257 0.17525229 -0.12158051 -0.018352235 0.038538195 0.10960793 0.039146837
-0.11502829 -0.08129368 -0.016497647 -0.089279294 -0.027381124 -0.0074317413 0.114664495 -0.106575534
-0.1659796 -0.07883468 0.040021703 -0.0696047 0.16678843 0.04830627 -0.1343302 0.062213596
-0.12087503 -0.08351929 0.056769323 -0.13050765 -0.03395709 -0.124737605 0.12190617 0.06269893
0.11538855 -0.08717594 -0.12703985 0.16171661 -0.11030627 -0.09298379 -0.2025155 0.04246322
-0.03024739 0.06501855 0.016890602 0.024062963 -0.15041804 0.22438928 -0.16983068 0.020047415
-0.13718027 -0.07999074 0.027329711 0.18197232 0.061164986 0.0074959295 0.080285646 0.122767754
-0.01923923 -0.09666773 0.04337326 0.04498953 0.06341028 -0.08570174 0.13961509 -0.11696887
-0.004706332 0.21577673 -0.031870518 0.059501626 0.10491101 -0.17137255 0.18671006 0.071941964
0.05307278 0.03458067 0.10904251 0.00988874 0.10982432 -0.17452207 -0.19179101 0.02364216
0.13239829 -0.03761202 0.14376645 0.0031245046 0.038149018 -0.0585084 -0.01366772 -0.10980177
-0.17007296 0.055457316 -0.058723886 0.07547171 0.032863434 -0.10496289 0.19437154 0.11533539
-0.10629478 0.030615164 0.074060634 -0.137542 0.050514497 -0.1397363 0.03966297 -0.21525715
0.10994641 0.04933445 0.12695442 0.02260005 -0.06002685 0.11264167 0.02237417 0.034794927
-0.08177443 0.13304162 -0.12267178 -0.13832949 -0.010137128 0.1356763 0.009573054 0.017803758
-0.19367936 0.11928167 -0.08867311 -0.12258465 0.114627436 -0.1528013 -0.14290103 -0.14782679
0.1556761 -0.087227054 -0.00508146 -0.13724062 0.04784304 0.1589761 0.0438918 0.00050520117
-0.032436125 0.042419713 0.14385086 -0.014231776 0.13785762 -0.02533032 0.018219015 -0.14246117
0.06316587 -0.049036108 -0.09392108 -0.21008486 0.029862652 0.055449307 0.10971056 0.040032804
-0.03592609 0.057990953 0.00761538 0.18123566 0.18589178 0.20904976 -0.042090435 0.079784594
0.16930328 0.02544865 0.1661806 -0.12109951 -0.002864318 0.056377016 -0.16466197 -0.047037464
0.049187694 0.006819368 -0.06361527 -0.005775643 -0.06322216 0.16827098 -0.034885667 0.116026014
0.00130188 0.12273986 0.11581785 -0.05276812 -0.08263982 -0.109583184 -0.07126548 -0.08629566
-0.07289786 0.017267736 0.076835245 -0.03104688 0.03196302 0.011529555 -0.013005764 0.009746382
-0.15599161 -0.008101934 0.18005106 0.047968898 0.13233542 0.03511619 -0.043227203 0.056874193
0.019061098 0.05329367 0.04059261 0.100896746 0.1022221 -0.11088226 -0.13669659 -0.19972453
0.16245677 -0.075069934 -0.19624136 0.012937006 -0.015832806 -0.03605819 -0.07982869 0.0387076
-0.12861049 -0.19980076 0.055556163 -0.08224476 0.023879325 0.038838744 -0.021966415 -0.1471252
0.021015689 -0.0716136 0.15171883 -0.03837981 0.1184672 0.13046795 0.11364419 0.095796704
0.07196832 -0.15581313 0.06903854 -0.03735194 0.081815265 -0.06557768 0.106593564 0.14244424
00000000: aede 9b3d e365 4b3e 0623 afbc d9f2 3b3e
00000010: 440f aebd e215 53be c718 65be f908 c1bd
00000020: 7f3b 613d 8544 0a3e 31fe 6fbd 4f6d 98bd
00000030: 15b9 013e c623 d4bd 69e8 b03c 3e24 0fbd
00000040: 9dfb 93bd c465 58be 5675 333e 34ff f8bd
00000050: 6d57 96bc 3ada 1d3d 1f7a e03d 6f58 203d
00000060: f493 ebbd 4d7d a6bd 1326 87bc 10d8 b6bd
00000070: 614e e0bc f785 f3bb 38d5 ea3d 4644 dabd
00000080: 8ef6 29be 1474 a1bd cced 233d e98c 8ebd
00000090: 96ca 2a3e ccdc 453d db8d 09be afd3 7e3d
000000a0: 548d f7bd 290c abbd f386 683d cca3 05be
000000b0: 9716 0bbd 6e76 ffbd f1a9 f93d 4c68 803d
000000c0: d550 ec3d 4d89 b2bd bc16 02be 0a99 253e
000000d0: 41e8 e1bd 496e bebd 3960 4fbe eaed 2d3d
000000e0: 60c9 f7bc 7228 853d 295e 8a3c b11f c53c
000000f0: 3007 1abe 4ec6 653e 18e8 2dbe 7a3a a43c
00000100: fc78 0cbe 2fd2 a3bd 8fe2 df3c f456 3a3e
00000110: 2388 7a3d 6aa0 f53b cd6c a43d a96d fb3d
00000120: 979b 9dbc bbf9 c5bd 29a8 313d f146 383d
00000130: 40dd 813d 6584 afbd 42f7 0e3e 608d efbd
00000140: 9337 9abb 93f4 5c3e a98a 02bd fab7 733d
00000150: 95db d63d 497c 2fbe ec30 3f3e 4f56 933d
00000160: d862 593d 76a4 0d3d ae51 df3d 6204 223c
00000170: 93eb e03d eab5 32be dd64 44be 34ad c13c
00000180: 6b93 073e 100f 1abd 8337 133e 7dc4 4c3b
00000190: 2542 1c3d 81a6 6fbd 93ee 5fbc c0df e0bd
000001a0: 9b27 2ebe 3627 633d 7588 70bd e990 9a3d
000001b0: cf9b 063d c9f6 d6bd 5509 473e f634 ec3d
000001c0: 14b1 d9bd a7cc fa3c 1aad 973d cfd7 0cbe
000001d0: 4ae8 4e3d 0817 0fbe a375 223d 5f6c 5cbe
000001e0: 952b e13d ec12 4a3d 5700 023e bd23 b93c
000001f0: b7de 75bd adb0 e63d 094a b73c 2085 0e3d
00000200: 5a79 a7bd 103c 083e 583b fbbd 3fa6 0dbe
00000210: 3216 26bc baee 0a3e 4cd8 1c3c 30d9 913c
00000220: e253 46be f349 f43d 3f9a b5bd a90d fbbd
00000230: cac1 ea3d f277 1cbe a654 12be e85f 17be
00000240: 8e69 1f3e 19a4 b2bd 6082 a6bb ce88 0cbe
00000250: 10f7 433d a1ca 223e e3c7 333d 7a6f 043a
00000260: bedb 04bd 4bc0 2d3d a44d 133e 652c 69bc
00000270: 8c2a 0d3e 8881 cfbc 0b40 953c 57e1 11be
00000280: 1c5d 813d 16da 48bd b259 c0bd 7c20 57be
00000290: 85a2 f43c d01e 633d eeaf e03d 70f9 233d
000002a0: 3c27 13bd ec87 6d3d 708a f93b d795 393e
000002b0: 6a5a 3e3e 2411 563e 0567 2cbd 1b66 a33d
000002c0: d75d 2d3e b079 d03c 3f2b 2a3e 0503 f8bd
000002d0: 48b7 3bbb 96eb 663d 269d 28be 5baa 40bd
000002e0: 0979 493d 0175 df3b b948 82bd 9b41 bdbb
000002f0: 9f7a 81bd 3a4f 2c3e 46e4 0ebd 0c9f ed3d
00000300: d8a3 aa3a 095f fb3d e931 ed3d 6223 58bd
00000310: 113f a9bd 266d e0bd a3f3 91bd c7bb b0bd
00000320: 794b 95bd 1175 8d3c cc5b 9d3d 0756 febc
00000330: a8eb 023d 75e6 3c3c 2116 55bc 4aaf 1f3c
00000340: 44bc 1fbe f9bd 04bc 4e5f 383e 097b 443d
00000350: f082 073e fed5 0f3d 020f 31bd eaf4 683d
00000360: 0526 9c3c 774a 5a3d 7044 263d f4a2 ce3d
00000370: d259 d13d 3d16 e3bd 31fa 0bbe 9684 4cbe
00000380: 115b 263e 44be 99bd 7ff3 48be bcf5 533c
00000390: cdb3 81bc c1b1 13bd 397d a3bd dc8b 1e3d
000003a0: 78b2 03be 9298 4cbe dc8e 633d f16f a8bd
000003b0: 939e c33c 6015 1f3d e9f2 b3bc fda7 16be
000003c0: 1829 ac3c 27aa 92bd 2e5c 1b3e 2634 1dbd
000003d0: ee9e f23d 6499 053e 49be e83d 1031 c43d
000003e0: 2064 933d 7a8d 1fbe 1464 8d3d 59fe 18bd
000003f0: c38e a73d 974d 86bd ba4d da3d e7dc 113e

fc2.weight f4 [128, 260]
0.047618557 -0.044797625 0.093269445 0.053628914 0.123396985 -0.046520688 -0.09843597 0.11781873
-0.046717864 -0.084105834 0.10710209 -0.0055312077 -0.016286734 0.068608396 -0.014858077 0.01201998
0.02947038 -0.07352313 0.03224009 0.082752086 0.07378064 -0.10965558 0.044818144 -0.1040086
0.0135394875 -0.10752174 -0.019456053 -0.42911473 0.04662953 -0.07351718 0.081672005 0.08396244
-0.015985278 -0.010427446 0.058940597 -0.13748524 -0.029023321 0.012318991 0.085782476 -0.023249269
-0.08257369 0.07968135 -0.017812476 -0.039124567 -0.01808186 0.032787573 0.06606277 -0.024018288
-0.13414897 0.00031258664 0.020102656 0.1357465 0.100282796 -0.021471601 0.0743695 -0.07303542
-0.12531124 -0.009783422 -0.11545261 -0.023769055 -0.056090415 0.046693377 0.10572152 0.03664556
-0.04717327 0.008248324 0.015323287 0.071312234 -0.009325591 -0.07378377 -0.072282076 0.01748177
-0.033156253 0.06751229 -0.057985708 -0.07060956 -0.06387633 0.04872313 0.09699206 -0.03514615
-0.08357771 -0.059589904 -0.051878702 -0.10124401 0.02097965 0.034459915 0.043216307 0.0070976564
-0.048315667 -0.16046226 -0.034008153 -0.083899274 -0.049280446 -0.110943355 0.00878805 -0.04786031
0.0043285564 -0.02364368 0.038839936 0.06265988 -0.030663613 -0.056896113 0.008036524 -0.061864574
-0.091398835 0.07423753 0.06607262 0.058898255 0.091424435 0.0775416 0.004930584 0.055145863
0.09625732 -0.036944248 -0.023928445 -0.14938651 -0.03385362 -0.055347033 0.0046382505 0.0049643544
0.021375924 -0.023850432 -0.04675506 -0.10973941 -0.091584325 0.04158021 0.100006565 -0.061801806
0.06070029 0.07552602 -0.16587655 0.07713563 0.08639371 -0.09003918 -0.051084377 0.1006051
0.0025950335 0.07590032 -0.032180794 0.057258654 -0.0132258795 -0.052544646 -0.056193877 -0.09604967
0.081767276 -0.15340514 -0.01623668 0.016213324 -0.09777369 -0.0068382444 -0.05251382 0.053965714
-0.01482431 0.10100367 0.029743109 0.065723054 -0.08621371 0.045895267 0.009097112 0.023374148
-0.05570414 0.08356175 -0.09000731 0.083787166 0.10872169 -0.015791584 0.0754193 0.09823512
0.036342777 -0.035092678 0.034166154 -0.05933622 -0.051937103 -0.07351915 -0.039184794 -0.014743959
0.046840385 -0.012033585 0.030641243 0.03390063 -0.07211168 0.108585894 -0.0914396 0.069503225
-0.043790832 -0.06415543 -0.046343647 -0.010929038 0.10946603 0.06607961 0.0047617373 0.0075009614
-0.080158636 0.09266066 -0.0037436073 -0.018216562 0.052458476 -0.08948298 0.10538493 0.028251585
-0.062148508 0.045313645 0.025532443 -0.08054006 0.021256408 0.020516576 0.04017264 -0.08519329
-0.17409447 0.007552019 0.0729204 -0.006825691 0.07967347 -0.009642038 -0.024286631 -0.16034424
0.016968276 -0.14183138 0.02812085 -0.012067007 -0.03779871 -0.001518164 -0.072715305 -0.18591024
0.05586906 -0.032254856 -0.097737774 0.10808847 -0.050621107 -0.020300174 0.049275834 0.013826391
0.014666545 0.03904 -0.094795935 -0.03390609 0.06122987 -0.02465124 -0.11428925 0.060138196
-0.035112016 0.06036565 0.0007817047 -0.14698032 0.098908626 0.0014998255 -0.048968777 -0.023345217
0.027742956 0.08782391 -0.009563529 0.04551674 0.028082607 0.043441065 -0.013005635 -0.02697442
00000000: ad0b 433d b77d 37bd 0d04 bf3d fea9 5b3d
00000010: 8fb7 fc3d 7a8c 3ebd cc98 c9bd f24a f13d
00000020: 3b5b 3fbd ae3f acbd 5758 db3d 223f b5bb
00000030: c26b 85bc 8f82 8c3d 4b6f 73bc 73ef 443c
00000040: de6b f13c 4b93 96bd 2f0e 043d ed79 a93d
00000050: 4e1a 973d 1b93 e0bd 3b93 373d 7602 d5bd
00000060: bad4 5d3c 5c34 dcbd 4d62 9fbc edb4 dbbe
00000070: 9bfe 3e3d 2d90 96bd a743 a73d 80f4 ab3d
00000080: 8ff3 82bc e1d7 2abc b26b 713d eec8 0cbe
00000090: 51c2 edbc 98d5 493c b9ae af3d 4075 bebc
000000a0: 651c a9bd fa2f a33d 78eb 91bc 1541 20bd
000000b0: 6920 94bc 434c 063d eb4b 873d 00c2 c4bc
000000c0: 595e 09be abe2 a339 53ae a43c 2101 0b3e
000000d0: 1161 cd3d 36e5 afbc 094f 983d 9893 95bd
000000e0: 9751 00be a54a 20bc 6b72 ecbd 52b7 c2bc
000000f0: 10bf 65bd 8e41 3f3d 8684 d83d a819 163d
00000100: c238 41bd fa23 073c 860e 7b3c 260c 923d
00000110: 5dca 18bc f21b 97bd a008 94bd ee35 8f3c
00000120: dace 07bd e243 8a3d 6c82 6dbd bf9b 90bd
00000130: 98d1 82bd e891 473d c6a3 c63d 69f5 0fbd
00000140: ca2a abbd 8b14 74bd c37e 54bd 0559 cfbd
00000150: 84dd ab3c d725 0d3d 9503 313d 7593 e83b
00000160: a6e6 45bd 3850 24be 224c 0bbd 62d3 abbd
00000170: 4bda 49bd 4536 e3bd c1fb 0f3c 2c09 44bd
00000180: 90d6 8d3b 64b0 c1bc a016 1f3d d353 803d
00000190: 4232 fbbc e60b 69bd a0ab 033c b565 7dbd
000001a0: 502f bbbd d909 983d 1551 873d 4c3f 713d
000001b0: bc3c bb3d 21ce 9e3d bd90 a13b a1e0 613d
000001c0: 8f22 c53d da52 17bd 9605 c4bc c7f8 18be
000001d0: 18aa 0abd 92b3 62bd 77fc 973b 06ac a23b
000001e0: 901c af3c fb61 c3bc 3c82 3fbd 0ebf e0bd
000001f0: 9090 bbbd 0350 2a3d 3ed0 cc3d e423 7dbd
00000200: dea0 783d 63ad 9a3d 8bdb 29be 49f9 9d3d
00000210: 2fef b03d 7666 b8bd da3d 51bd 0c0a ce3d
00000220: 7011 2a3b a171 9b3d 02d0 03bd 0d88 6a3d
00000230: 5cb1 58bc 0e39 57bd 8d2b 66bd b0b5 c4bd
00000240: 9a75 a73d 3d16 1dbe c902 85bc ced1 843c
00000250: 933d c8bd 5a13 e0bb bb18 57bd 270b 5d3d
00000260: aae1 72bc 03db ce3d d2a7 f33c cf99 863d
00000270: d090 b0bd adfc 3b3d 0e0c 153c 247b bf3c
00000280: 062a 64bd 6c22 ab3d c155 b8bd 9b98 ab3d
00000290: 7aa9 de3d 5a5d 81bc 6f75 9a3d 7f2f c93d
000002a0: 2adc 143d 57bd 0fbd cff1 0b3d 890a 73bd
000002b0: 00bc 54bd 3591 96bd 3c80 20bd a590 71bc
000002c0: b4db 3f3d 8428 45bc 5803 fb3c 63db 0a3d
000002d0: 4aaf 93bd 4862 de3d af44 bbbd b557 8e3d
000002e0: 045e 33bd ec63 83bd d6d2 3dbd b50f 33bc
000002f0: ba2f e03d bf54 873d 5908 9c3b a0ca f53b
00000300: 362a a4bd dfc4 bd3d 4f57 75bb e63a 95bc
00000310: b3de 563d da42 b7bd 0ed4 d73d de6f e73c
00000320: 6f8f 7ebd cd9a 393d 6a29 d13c 30f2 a4bd
00000330: eb21 ae3c 6112 a83c 118c 243d d279 aebd
00000340: d245 32be ed76 f73b 4a57 953d 0caa dfbb
00000350: d82b a33d a3f9 1dbc c2f4 c6bc 4831 24be
00000360: 0e01 8b3c 3f3c 11be b25d e63c b2b4 45bc
00000370: d2d2 1abd 21fd c6ba c3eb 94bd 415f 3ebe
00000380: f5d6 643d ab1d 04bd be2a c8bd 7d5d dd3d
00000390: 1458 4fbd 8d4c a6bc 75d5 493d 1688 623c
000003a0: f34b 703c 68e8 1f3d 5f24 c2bd 1de1 0abd
000003b0: 2ccc 7a3d 66f1 c9bc 7b10 eabd 7853 763d
000003c0: 9ed1 0fbd f941 773d 50eb 4c3a 0282 16be
000003d0: 9b90 ca3d cb95 c43a 7c93 48bd 783e bfbc
000003e0: 3245 e33c 06dd b33d 59b0 1cbc c36f 3a3d
000003f0: 7f0d e63c 42ef 313d 9615 55bc 75f9 dcbc

fc2.bias f4 [128]
0.030671302 0.12811977 0.068944685 -0.058527365 0.05497654 0.05716693 -0.05391103 0.008672162
0.0573192 0.011214359 0.067504846 0.09301105 -0.036645453 -0.09913762 -0.049260743 -0.08728844
0.07028125 0.041255556 -0.0017811607 0.045129836 0.092399865 0.12897077 -0.057983175 -0.091759704
0.11131943 -0.0015015752 0.15385155 -0.059972677 -0.0063859443 0.04511465 0.053350247 0.01615811
-0.05022926 -0.07518079 -0.04709621 0.0047256225 0.102908194 0.05268808 0.10323099 0.01004713
0.011068623 -0.018402588 0.024375921 0.024111802 -0.060298678 0.14213341 0.05562892 -0.028629785
0.10265369 -0.003973019 -0.09431386 -0.086995386 0.045171354 -0.06290277 -0.023167547 -0.08498365
0.0839871 -0.017765759 0.07707319 0.025342863 -0.0840173 0.05327508 0.06986161 0.09492919
-0.039942455 -0.035249773 0.06566483 -0.027816245 0.12276491 0.023827089 0.018890515 -0.07832711
0.012030098 0.040310737 -0.057255328 -0.008560147 0.09463323 -0.15170778 -0.0006294367 -0.08093692
0.107143044 0.080780305 -0.06690222 -0.05485219 -0.00741348 0.08040377 -0.0122836465 0.026083007
0.119142875 0.11827279 0.15111962 0.12071568 -0.037165705 0.10510399 0.062186718 0.03872958
-0.07557285 0.02762092 0.14332977 -0.07618666 0.024146315 0.0217624 -0.05799399 0.10298607
0.0111950915 -0.0024703548 0.040352 -0.112554364 0.012920257 0.0045315307 0.006759674 0.024912765
-0.049421318 -0.059422214 0.03826813 -0.050000552 -0.012431914 0.06629407 0.035773344 -0.05853067
-0.087513104 0.047351062 0.10151129 0.028047921 -0.025703415 -0.10472363 -0.077279024 0.0011540838
00000000: 6242 fb3c d431 033e df32 8d3d 64ba 6fbd
00000010: 152f 613d df27 6a3d d0d1 5cbd af15 0e3c
00000020: 8ac7 6a3d 6ebc 373c fb3f 8a3d 947c be3d
00000030: 8b19 16bd aa08 cbbd a2c5 49bd 48c4 b2bd
00000040: 9eef 8f3d 96fb 283d d675 e9ba 10da 383d
00000050: 243c bd3d ea10 043e c47f 6dbd 83ec bbbd
00000060: 71fb e33d 81d0 c4ba 438b 1d3e e9a5 75bd
00000070: 2f41 d1bb 24ca 383d ca85 5a3d 035e 843c
00000080: 32bd 4dbd 63f8 99bd f5e7 40bd 65d9 9a3b
00000090: 88c1 d23d 75cf 573d c56a d33d b89c 243c
000000a0: 2b59 353c 06c1 96bc 03b0 c73c 1d86 c53c
000000b0: bffb 76bd 6c8b 113e 27db 633d 0389 eabc
000000c0: 193c d23d 1930 82bb a027 c1bd a32a b2bd
000000d0: 9905 393d 2bd3 80bd dec9 bdbc e80b aebd
000000e0: 6e01 ac3d 7f89 91bc 8cd8 9d3d d69b cf3c
000000f0: 4311 acbd f836 5a3d 9b13 8f3d 3c6a c23d
00000100: b39a 23bd 1162 10bd 487b 863d e5de e3bc
00000110: 2b6c fb3d 0731 c33c 48c0 9a3c f769 a0bd
00000120: e319 453c df1c 253d 9084 6abd dc3f 0cbc
00000130: 11cf c13d 4959 1bbe c800 25ba 42c2 a5bd
00000140: d06d db3d 2570 a53d 0804 89bd b1ac 60bd
00000150: c7ec f2bb bbaa a43d 5941 49bc 08ac d53c
00000160: 2e01 f43d 0139 f23d 1abf 1a3e c839 f73d
00000170: 113b 18bd c340 d73d 80b7 7e3d e8a2 1e3d
00000180: f0c5 9abd 4545 e23c 0ac5 123e c007 9cbd
00000190: 7ece c53c 1047 b23c 1b8b 6dbd 5cea d23d
000001a0: 9e6b 373c ade5 21bb 2448 253d e782 e6bd
000001b0: 7caf 533c 3c7d 943b 4180 dd3b db15 cc3c
000001c0: 026e 4abd b564 73bd 0bbf 1c3d 61cd 4cbd
000001d0: 3aaf 4bbc 2fc5 873d 1287 123d dbbd 6fbd
000001e0: 123a b3bd 30f3 413d 27e5 cf3d c1c4 e53c
000001f0: f88f d2bc 5879 d6bd 7744 9ebd a044 973a

fc3.weight f4 [1, 128]
0.10823445 0.27137354 0.08302631 -0.067071296 0.14699194 0.07858132 0.2091221 0.1019502
0.046726685 -0.23558609 0.07370955 0.14284588 -0.21893698 -0.14858013 -0.17810874 -0.25516933
0.1367942 0.04617619 0.027931666 0.10599596 0.077610485 0.10181661 -0.18264236 -0.2599269
0.11109644 -0.07837119 0.09329957 -0.10805028 -0.14454296 0.07925871 0.031355422 -0.25494522
-0.25473627 -0.094576165 -0.13017662 0.123016864 0.07078446 0.07195176 0.07417005 -0.073832735
0.06131382 -0.1968033 0.048399404 0.057232857 -0.17282413 0.06388701 0.0789854 -0.17285049
0.11449704 -0.06642068 -0.13479032 -0.08935375 0.065977864 -0.19141816 -0.22467087 -0.24866407
0.07071625 -0.23836803 0.056868587 0.06922754 -0.09467013 0.04952928 0.08082358 0.035722394
-0.11876275 -0.21294862 0.11082635 -0.13005872 0.09265561 -0.11696557 -0.07981968 -0.17512484
-0.06824998 0.05600576 -0.050344683 -0.032817073 0.07828248 -0.24654137 0.0852579 -0.17659383
0.04692864 0.09064847 -0.29131112 -0.12793277 0.091791086 0.05872967 -0.056968506 -0.14341557
0.103275724 0.083045825 0.104521446 0.08253721 -0.06730224 0.06728983 0.05428734 0.033958923
-0.08295469 0.1713337 0.14407235 -0.18990844 0.056038983 0.08287763 -0.18080646 0.043567438
0.05734826 -0.04621922 0.137354 -0.05727064 0.060753312 -0.078405544 0.051450115 -0.12693901
-0.24352378 -0.0798814 -0.049630344 -0.060776055 -0.27353182 0.06727703 0.07526999 -0.09049436
-0.16352461 0.16672279 0.082250096 0.08600555 -0.24581079 -0.09984387 -0.101893924 -0.102636024
00000000: 06aa dd3d 79f1 8a3e b309 aa3d ad5c 89bd
00000010: 0e85 163e 3eef a03d 1b24 563e 44cb d03d
00000020: 7b64 3f3d 7b3d 71be 08f5 963d 3146 123e
00000030: 0431 60be 6425 18be 2362 36be 8ea5 82be
00000040: c713 0c3e 3f23 3d3d f3d0 e43c 6914 d93d
00000050: 3ff2 9e3d 3a85 d03d 9906 3bbe 2315 85be
00000060: 8886 e33d 1381 a0bd d813 bf3d 7749 ddbd
00000070: 1203 14be 6452 a23d 8b6e 003d 2e88 82be
00000080: cb6c 82be 26b1 c1bd 054d 05be 44f0 fb3d
00000090: 71f7 903d 725b 933d 78e6 973d 9e35 97bd
000000a0: 3324 7b3d ce86 49be 743e 463d 006d 6a3d
000000b0: cff8 30be 31d7 823d 19c3 a13d b8ff 30be
000000c0: 6d7d ea3d 9107 88bd 7906 0abe 19ff b6bd
000000d0: 671f 873d 1f03 44be 1f10 66be cba1 7ebe
000000e0: aed3 903d c016 74be 09ef 683d 2bc7 8d3d
000000f0: 6ae2 c1bd 37df 4a3d d586 a53d a551 123d
00000100: e239 f3bd 340f 5abe edf8 e23d 1d2e 05be
00000110: 39c2 bd3d a58b efbd 8078 a3bd ed53 33be
00000120: a5c6 8bbd 4c66 653d 3a36 4ebd 326b 06bd
00000130: 9152 a03d 5775 7cbe b29b ae3d 03d5 34be
00000140: 3f38 403d e8a5 b93d bb26 95be cf00 03be
00000150: f7fc bb3d 868e 703d cf57 69bd 88db 12be
00000160: 3982 d33d ee13 aa3d 570f d63d 4509 a93d
00000170: c2d5 89bd 40cf 893d 675c 5e3d 8318 0b3d
00000180: 26e4 a9bd 1a72 2f3e b487 133e 5c77 42be
00000190: 2289 653d bfbb a93d 5425 39be c573 323d
000001a0: 02e6 6a3d 5d50 3dbd 87a6 0c3e 9e94 6abd
000001b0: 77d8 783d 1693 a0bd 5bbd 523d 4dfc 01be
000001c0: 4c5e 79be dc98 a3bd 3049 4bbd 50f0 78bd
000001d0: 5d0c 8cbe 8ac8 893d 2727 9a3d 1b55 b9bd
000001e0: ff72 27be 61b9 2a3e bd72 a83d ae23 b03d
000001f0: d3b5 7bbe f17a ccbd c3ad d0bd d632 d2bd
